…
oks\n   1519         or _global_forward_hooks or _global_forward_pre_hooks):\n-&gt; 1520     return forward_call(*args, **kwargs)\n   1522 try:\n   1523     result = None\n\nTypeError: DistilBertForSequenceClassification.forward() got an unexpected keyword argument 'text'\n\n\n\nOh no! We get an error.\nNot to worry, this is only because our model hasn’t been trained on our own dataset yet.\nLet’s take a look at the layers in our model.\n\n# Inspect the model \nmodel\n\nDistilBertForSequenceClassification(\n  (distilbert): DistilBertModel(\n    (embeddings): Embeddings(\n      (word_embeddings): Embedding(30522, 768, padding_idx=0)\n      (position_embeddings): Embedding(512, 768)\n      (LayerNorm): LayerNorm((768,), eps=1e-12, elementwise_affine=True)\n      (dropout): Dropout(p=0.1, inplace=False)\n    )\n    (transformer): Transformer(\n      (layer): ModuleList(\n        (0-5): 6 x TransformerBlock(\n          (attention): MultiHeadSelfAttention(\n            (dropout): Dropout(p=0.1, inplace=False)\n            (q_lin): Linear(in_features=768, out_features=768, bias=True)\n            (k_lin): Linear(in_features=768, out_features=768, bias=True)\n            (v_lin): Linear(in_features=768, out_features=768, bias=True)\n            (out_lin): Linear(in_features=768, out_features=768, bias=True)\n          )\n          (sa_layer_norm): LayerNorm((768,), eps=1e-12, elementwise_affine=True)\n          (ffn): FFN(\n            (dropout): Dropout(p=0.1, inplace=False)\n            (lin1): Linear(in_features=768, out_features=3072, bias=True)\n            (lin2): Linear(in_features=3072, out_features=768, bias=True)\n            (activation): GELUActivation()\n          )\n          (output_layer_norm): LayerNorm((768,), eps=1e-12, elementwise_affine=True)\n        )\n      )\n    )\n  )\n  (pre_classifier): Linear(in_features=768, out_features=768, bias=True)\n  (classifier): Linear(in_features=768, out_features=2, bias=True)\n  (dropout): Dropout(p=0.2, inplace=False)\n)\n\n\nTK image - show what it looks like when fine-tuning a model for a specific task, e.g. backbone is pre-trained layers, classification head is swapped out\nYou’ll notice that the model comes in 3 main parts (data flows through these sequentially):\n\nembeddings - This part of the model turns the input tok
…
